…
&lt;div class=&quot;language-python highlighter-rouge&quot;&gt;&lt;div class=&quot;highlight&quot;&gt;&lt;pre class=&quot;highlight&quot;&gt;&lt;code&gt;&lt;span class=&quot;n&quot;&gt;model&lt;/span&gt;&lt;span class=&quot;p&quot;&gt;.&lt;/span&gt;&lt;span class=&quot;nf&quot;&gt;summary&lt;/span&gt;&lt;span class=&quot;p&quot;&gt;()&lt;/span&gt;
&lt;/code&gt;&lt;/pre&gt;&lt;/div&gt;&lt;/div&gt;

&lt;div class=&quot;language-plaintext highlighter-rouge&quot;&gt;&lt;div class=&quot;highlight&quot;&gt;&lt;pre class=&quot;highlight&quot;&gt;&lt;code&gt;Model: &quot;sequential_1&quot;
_________________________________________________________________
Layer (type)                 Output Shape              Param #   
=================================================================
conv2d_1 (Conv2D)            (None, 24, 24, 6)         156       
_________________________________________________________________
average_pooling2d_1 (Average (None, 12, 12, 6)         0         
_________________________________________________________________
conv2d_2 (Conv2D)            (None, 8, 8, 16)          2416      
_________________________________________________________________
average_pooling2d_2 (Average (None, 4, 4, 16)          0         
_________________________________________________________________
flatten_1 (Flatten)          (None, 256)               0         
_________________________________________________________________
dense_1 (Dense)              (None, 120)               30840     
_________________________________________________________________
dense_2 (Dense)              (None, 84)                10164     
_________________________________________________________________
dense_3 (Dense)              (None, 10)                850       
=================================================================
Total params: 44,426
Trainable params: 44,426
Non-trainable params: 0
_________________________________________________________________
&lt;/code&gt;&lt;/pre&gt;&lt;/div&gt;&lt;/div&gt;

&lt;h2 id=&quot;lenet-5-application-mnist-classification&quot;&gt;LeNet-5 Application: MNIST classification&lt;/h2&gt;

&lt;p&gt;Keras requires to compile the model before training. Here is where we add the cost function, the optimizer (learning algorithm, i.e., &lt;a href=&quot;https://arxiv.org/abs/1212.5701&quot;&gt;Adadelta&lt;/a&gt; , that is a variation of backpropagation), and the metrics to be saved.&lt;/p&gt;
…
&lt;div class=&quot;language-python highlighter-rouge&quot;&gt;&lt;div class=&quot;highlight&quot;&gt;&lt;pre class=&quot;highlight&quot;&gt;&lt;code&gt;&lt;span class=&quot;n&quot;&gt;model&lt;/span&gt;&lt;span class=&quot;p&quot;&gt;.&lt;/span&gt;&lt;span class=&quot;nf&quot;&gt;summary&lt;/span&gt;&lt;span class=&quot;p&quot;&gt;()&lt;/span&gt;
&lt;/code&gt;&lt;/pre&gt;&lt;/div&gt;&lt;/div&gt;

&lt;div class=&quot;language-plaintext highlighter-rouge&quot;&gt;&lt;div class=&quot;highlight&quot;&gt;&lt;pre class=&quot;highlight&quot;&gt;&lt;code&gt;Model: &quot;sequential_2&quot;
_________________________________________________________________
Layer (type)                 Output Shape              Param #   
=================================================================
conv2d_3 (Conv2D)            (None, 6, 6, 96)          34944     
_________________________________________________________________
batch_normalization_1 (Batch (None, 6, 6, 96)          384       
_________________________________________________________________
max_pooling2d_1 (MaxPooling2 (None, 2, 2, 96)          0         
_________________________________________________________________
conv2d_4 (Conv2D)            (None, 2, 2, 256)         614656    
_________________________________________________________________
batch_normalization_2 (Batch (None, 2, 2, 256)         1024      
_________________________________________________________________
max_pooling2d_2 (MaxPooling2 (None, 1, 1, 256)         0         
_________________________________________________________________
conv2d_5 (Conv2D)            (None, 1, 1, 384)         885120    
_________________________________________________________________
conv2d_6 (Conv2D)            (None, 1, 1, 384)         1327488   
_________________________________________________________________
conv2d_7 (Conv2D)            (None, 1, 1, 384)         1327488   
_________________________________________________________________
max_pooling2d_3 (MaxPooling2 (None, 1, 1, 384)         0         
_________________________________________________________________
flatten_2 (Flatten)          (None, 384)               0         
_________________________________________________________________
dense_4 (Dense)              (None, 4096)              1576960   
_________________________________________________________________
dropout_1 (Dropout)          (None, 4096)              0         
_________________________________________________________________
dense_5 (Dense)              (None, 4096)              16781312  
_________________________________________________________________
dropout_2 (Dropout)          (None, 4096)              0         
_________________________________________________________________
dense_6 (Dense)              (None, 10)                40970     
=================================================================
Total params: 22,590,346
Trainable params: 22,589,642
Non-trainable params: 704
_________________________________________________________________
&lt;/code&gt;&lt;/pre&gt;&lt;/div&gt;&lt;/div&gt;

&lt;h2 id=&quot;alexnet-application-cifar-10-classification&quot;&gt;AlexNet Application: CIFAR-10 classification&lt;/h2&gt;

&lt;p
…
